macro_risk_model.pt (torch, 4033 bytes, 5 tensors)

net.0.weight f4 [16, 4]
000000 e0 98 05 3e 02 a6 db be 76 10 a0 be c8 81 af bd
       0.13046598 -0.4290009 -0.3126256 -0.08569676
000010 a5 28 1e 3f 11 e8 88 3e 02 95 d2 3e 0f c5 bc 3e
       0.6178077 0.26739553 0.4112931 0.36869094
000020 38 cc b0 3e 82 fe ea bd 0d f2 25 be 61 27 a8 be
       0.34530807 -0.11474325 -0.16205616 -0.32842544
000030 c6 0b 26 3f 8f 48 0a bf 3d 58 03 3f 26 99 da 3e
       0.64861715 -0.54016966 0.51306516 0.42694968
000040 8b 3a 10 bf 5a c7 6e 3e 3b a3 39 3f 75 5e b7 3e
       -0.5633933 0.23318234 0.72514695 0.35814252
000050 a0 0f f0 3d a2 1b f9 be 08 eb ef 3d a2 f5 ee be
       0.1172173 -0.48653895 0.117147505 -0.46671778
000060 79 27 17 3e d1 ea de 3e b7 d0 b4 bd e9 db e3 3e
       0.14761151 0.43538526 -0.08828872 0.44503716
000070 53 b9 2a 3f 2d 64 ec be 7c 00 fa 3e 30 3f ad bd
       0.6668903 -0.46170178 0.48828495 -0.08459318
000080 e9 72 10 3f 4d 50 bd be b6 45 dd 3d b2 55 cd bc
       0.5642534 -0.36975327 0.10804312 -0.025065277
000090 18 19 ab bd 78 07 43 3e 99 e9 1a 3f 96 ab f2 3e
       -0.08354396 0.19045818 0.6051269 0.47396535
0000a0 a6 d7 95 be 20 46 fe be cc c0 0f 3e 02 76 f0 be
       -0.2926609 -0.49662876 0.1403839 -0.46965033
0000b0 d1 1b 5e 3e 4c a4 de be a4 2c c4 3e 26 ff 96 3d
       0.21690299 -0.43484724 0.38315308 0.073728845
0000c0 dc d2 0b 3d 75 7d 91 3e 30 54 0c 3f 7b 88 33 3f
       0.034136638 0.2841603 0.5481596 0.7013013
0000d0 0d 9b 2e be 69 ee 48 be 14 b4 13 3e e7 3f d9 3e
       -0.17051335 -0.19622196 0.14424163 0.42431566
0000e0 c2 fe f1 3d 1c 56 1c 3f d3 a1 ed 3d 77 cc d0 3e
       0.11816169 0.6106889 0.11603131 0.40780994
0000f0 67 55 06 3f ba 05 5c be 1a f0 2c be d8 1d 2a be
       0.52474064 -0.2148656 -0.16888466 -0.16612947

net.0.bias f4 [16]
000000 24 d3 34 be d5 56 85 be 36 7a c9 3e 2e 7c d6 3c
       -0.17658669 -0.2604281 0.39351052 0.02618226
000010 d1 71 6d 3e 78 81 e5 bd aa ab 8f bd 44 8c 2d 3e
       0.23187949 -0.11206335 -0.07015164 0.16948038
000020 db 9e cd bd 2e 69 d2 3e b2 34 f4 be 5e c6 08 bf
       -0.10040065 0.4109587 -0.47696453 -0.53427684
000030 0c 88 fd 3b f6 ad 1e 3f 47 f5 ee bd 40 0c d4 3e
       0.0077371653 0.61984193 -0.11667877 0.41415596

net.2.weight f4 [8, 16]
000000 b0 17 69 3e 82 d8 0c 3e e4 b5 93 be 59 76 11 3d
       0.22762942 0.13754466 -0.2884971 0.035513256
000010 93 b0 03 3e 7a 15 28 be 98 00 a2 3e 3f 5b b5 be
       0.12860326 -0.16414443 0.31641078 -0.35421178
000020 6c df 1b 3d a1 79 4e 3e 92 53 17 3e 00 93 8a 3c
       0.03805487 0.20163585 0.14777973 0.016915798
000030 09 ce 9b 3e 8b 38 06 3e f9 36 aa 3e 43 30 80 be
       0.3043063 0.13107507 0.33245066 -0.2503682
000040 c8 54 6e 3d a4 98 4e 3e b1 0d 27 bc 4c 09 a6 be
       0.058186322 0.20175415 -0.010196135 -0.32428968
000050 70 64 87 3e ac ca 04 3e ac b6 63 bd 68 c5 f3 bd
       0.26443815 0.12967938 -0.05559413 -0.11902887
000060 60 df 7f be 94 bb ba 3e 3a de 6c be 86 2f 98 be
       -0.24987555 0.36471236 -0.23131648 -0.29723758
000070 4a 51 82 3e 7f c4 9a bc 06 d1 a0 3e 3c ae 07 3a
       0.25452644 -0.018892525 0.31409472 0.0005175804
000080 98 7e 29 3d dc 0a 77 3e c1 fc 78 3e f6 7f 62 bc
       0.041380495 0.24125236 0.24315168 -0.013824454
000090 bc d1 a2 be 12 5e 0b be 10 4a a3 3d 61 68 39 3d
       -0.3180064 -0.13610104 0.07973111 0.04526556
0000a0 93 93 b2 3e 20 f2 9a 3e 4a 1a 59 be 4b f3 86 be
       0.34878215 0.30262852 -0.21201435 -0.26357493
0000b0 10 1f 02 3f 5d 2d c3 bc 0d ce d5 3e d7 19 cf 3e
       0.5082865 -0.023825342 0.41758767 0.40449402
0000c0 98 2a 19 be c1 65 c2 3e d1 4d cf bd 08 f5 6b 3d
       -0.14957654 0.37968257 -0.10122264 0.057606727
0000d0 b8 46 01 3f 88 85 16 3e c3 21 e3 bb 60 29 c2 be
       0.50498533 0.14699376 -0.006931515 -0.37922192
0000e0 97 1d 8f ba b7 76 92 3d c4 70 22 be f0 5c d8 3d
       -0.0010918853 0.07151549 -0.15863329 0.105646014
0000f0 fa 29 b3 3e 6d 19 71 3e d8 80 a1 3d c0 f7 c5 3d
       0.34992963 0.23544855 0.07885903 0.09666395
000100 94 37 54 3e e0 c0 99 be bb 8d 06 be 1f 76 3d 3e
       0.20724326 -0.30029964 -0.13140003 0.18502091
000110 ef 02 22 3e c8 cd 52 bd 4d cb 96 3d 1d 9f 69 ba
       0.15821432 -0.05146578 0.07362995 -0.00089119544
000120 bb b6 89 3e 60 c2 59 3e f0 84 4d be 8d c0 42 3e
       0.26897225 0.21265554 -0.20070243 0.19018765
000130 5f 95 16 3e 61 9f a0 bb ef b8 8a bd ef e1 0f 3e
       0.14705418 -0.004901812 -0.067735545 0.1405103
000140 6c 64 8e bd f6 90 09 bd 45 22 c2 be 2d af 9c bc
       -0.06952748 -0.03358551 -0.3791677 -0.0191265
000150 60 da 94 3e 94 a4 20 3e 3c 85 53 3e 19 63 11 3e
       0.29072857 0.15687782 0.20656294 0.14197959
000160 28 a5 e7 bd 5f 47 fc 3e c0 f7 d3 3b eb ea 8e 3c
       -0.11310798 0.49273202 0.006468743 0.017446002
000170 a2 3a 59 3e 7b f3 c8 3e c6 c2 70 3e d4 21 a4 be
       0.21213773 0.3924826 0.235118 -0.3205706
000180 bc 35 2e 3e 7f c2 b6 bd c5 45 3c be 2c 3b 8c bc
       0.17012686 -0.08923816 -0.1838599 -0.01711806
000190 f6 94 d7 3e 56 2d 61 3e 1c a7 64 3e e9 f2 a8 be
       0.42105836 0.2198995 0.22329372 -0.32997826
0001a0 ff b8 78 be aa f9 a0 3e 10 8c 45 3e 09 98 d9 3d
       -0.2428932 0.3144048 0.19291711 0.106247015
0001b0 94 c0 55 3e 4f 15 ac 3d a2 ad 5a 3e 27 ce 03 3d
       0.20874244 0.08402502 0.21355298 0.032179024
0001c0 30 aa 4a bd bb 17 b4 3e 5c be 96 3e 68 92 f3 3e
       -0.04947871 0.35174355 0.29442108 0.47572637
0001d0 98 96 73 be e4 72 81 3d 9c 4a 61 3d e4 99 b7 3e
       -0.23787916 0.06320742 0.055002794 0.35859597
0001e0 07 83 f2 3e 72 ce 48 3e 30 58 05 3d 3a f6 a4 bc
       0.4736559 0.19610003 0.032554805 -0.020136941
0001f0 04 69 a7 bb 85 93 57 3e 36 15 bb 3d 68 6b b8 3e
       -0.0051089544 0.21052368 0.09134905 0.36019444

net.2.bias f4 [8]
000000 2c b6 7d bc 70 ea bf bd e7 a3 95 3e af aa 49 bd
       -0.015485328 -0.09370887 0.2922661 -0.049235042
000010 b2 0e e7 bc d5 18 0a 3e 41 86 9a 3c 7b 55 bb 3e
       -0.02820525 0.13486035 0.018862845 0.36588654

net.4.weight f4 [1, 8]
000000 7f cb bd 3e 21 20 03 3e e8 03 66 be 4b d9 ca 3e
       0.37069318 0.12805225 -0.22462428 0.39618906
000010 ec b7 8a bd 54 ef e8 3e 02 79 76 3e 54 a9 1a bf
       -0.067733616 0.45495093 0.24069598 -0.60414624
