saved_model.pt (torch, 130899 bytes, 16 tensors)

gcn.conv1.bias f4 [64]
000000 42 35 27 3c e1 ae a6 bc 10 01 b1 bd 78 0c e2 3d
       0.010205569 -0.02034706 -0.08642781 0.110375345
000010 3a ab 65 bc f3 28 a9 3d e1 41 3c 3e 20 88 e7 bd
       -0.014017874 0.082597636 0.18384506 -0.11305261
000020 44 bc 80 bd 29 cd 80 3d 56 8e 29 3d 61 67 a6 bd
       -0.06285909 0.06289131 0.041395508 -0.08125187
000030 55 e0 c0 3d c9 36 9b bd 63 30 e9 3d 61 37 21 bd
       0.09417788 -0.07578809 0.11386182 -0.039359454
000040 7d 0b 40 3e 0d df 2a 3d b1 91 e2 3d c3 f8 04 3c
       0.18754382 0.041716624 0.11062945 0.00811595
000050 10 a3 0a bd e2 c0 3e bd 1c b6 28 3c 6a 54 11 3e
       -0.033846915 -0.046570666 0.0102973245 0.14192358
000060 45 b4 bf 3d c8 e1 2f 3e d7 64 b3 bd 58 1b e2 bd
       0.093605556 0.17175972 -0.08759468 -0.11040372
000070 c6 1d 0e 3d 90 8e 2d bd 1a ec 80 3e 3f fd 29 bd
       0.034696363 -0.042372286 0.2518013 -0.04150128
000080 7e ab 9d bd aa 59 c0 3c e3 f5 f7 3d e0 bb 88 bd
       -0.07698725 0.023480255 0.12107446 -0.06676459
000090 33 84 58 3d 69 f5 0c be a0 a6 e9 3d a4 d2 0c 3a
       0.05286045 -0.13765492 0.11408734 0.0005371964
0000a0 13 28 6e bd 4c c4 72 3d e4 f4 12 be f1 fa 1d bd
       -0.058143687 0.059269235 -0.14351231 -0.038569394
0000b0 53 ca f5 3d df 93 56 3e a5 5f ff bd 67 59 11 3e
       0.12001481 0.20954846 -0.124694146 0.1419426
0000c0 de 1e 1f 3e 07 b6 3d bd 8b 92 b2 bd f0 39 17 3e
       0.15539119 -0.046316173 -0.08719357 0.14768195
0000d0 1d 9b 2d be 5b e3 ef bd 28 7d 4b be f0 b9 11 3e
       -0.16953702 -0.117132865 -0.19871962 0.14231086
0000e0 3a dd 1c be e8 56 8f bd 4e 87 90 bd 04 a1 43 3d
       -0.15318766 -0.06998998 -0.07057057 0.04776098
0000f0 3c 3a 55 bd 16 29 38 3e b7 a6 9d ba 6f 7a 22 be
       -0.05205749 0.17984423 -0.0012027834 -0.15867017

gcn.conv1.lin.weight f4 [64, 15]
000000 fb af b0 3d 57 1e 6e 3e e8 dc e9 3d 21 72 6a be
       0.086273156 0.23253761 0.11419088 -0.22895099
000010 8e 75 ca bd c5 6d a6 3c 78 ce 08 3d 08 9c 3c 3e
       -0.09885703 0.020316014 0.03340003 0.18418896
000020 b3 10 c2 bd 0d ed ce 3d 7a 49 93 be 35 88 03 3e
       -0.094758414 0.101038076 -0.28766996 0.12844928
000030 a5 8e 3f 3e 72 93 84 be 5b f3 ca be 7d 8c e8 3c
       0.18706758 -0.25893742 -0.3963879 0.028387303
000040 d6 4d f0 bd c1 58 65 be 8e 9a 90 bd 1d 1a e2 3d
       -0.11733596 -0.22397138 -0.07060729 0.11040137
000050 ad f7 72 be 00 9c 5f 3a 49 18 51 be 98 a3 5a 3b
       -0.23727293 0.0008530021 -0.2041942 0.003336167
000060 83 ce b3 3e 7f 2d 8f 3e f3 7a fa bc 4e e9 84 3d
       0.35118493 0.27964398 -0.030576205 0.06489812
000070 81 9d 9a be 86 2b 92 be d4 35 af 3c 34 67 b1 bd
       -0.3019829 -0.2854883 0.021387972 -0.086622626
000080 94 3a 91 bd 50 11 f8 bd 50 01 75 bc a0 25 96 be
       -0.07091251 -0.12112677 -0.014953926 -0.2932558
000090 6c 26 32 be 0d df e5 bd e4 c4 86 3e 4b 8b 90 3e
       -0.1739747 -0.11224184 0.2632209 0.28231272
0000a0 f4 99 26 3d 1c 76 8f bd 79 69 45 be 3e 8e 90 3e
       0.040674165 -0.070049495 -0.19278516 0.28233522
0000b0 5a da 88 3e 4e 1b f9 3e 05 20 2e 3d a9 52 2a 3d
       0.2672909 0.48653644 0.042511005 0.041582737
0000c0 7f ba 1d 3d bb a3 50 bd 41 a4 8b 3e c2 cd a9 bd
       0.038507935 -0.050937396 0.27273753 -0.08291198
0000d0 f9 b9 76 3e a9 54 b4 be 0c 75 28 3e c0 a0 37 be
       0.2409438 -0.3522084 0.164509 -0.17932415
0000e0 9c ed 0e 3e 5a 49 f1 3c 89 91 68 3d f9 cf d6 be
       0.13957828 0.029453922 0.05677942 -0.41955546
0000f0 f8 f8 5c be e6 95 94 3e dc e5 46 3e d1 75 30 3e
       -0.21579349 0.29020613 0.19423622 0.17232443
000100 87 8a 80 be 0c b1 bc 3d 94 28 db bd e3 0a 1e 3e
       -0.25105688 0.092134565 -0.10701099 0.1543384
000110 79 7c b2 3d 8b 86 c6 3e c0 3a 20 be a0 f9 04 3e
       0.087151475 0.38774523 -0.15647411 0.1298585
000120 14 c1 30 be f5 a8 c3 3e 86 21 0a 3b 80 0b 20 3e
       -0.17261153 0.3821484 0.002107711 0.15629387
000130 91 ed 50 be 23 c2 8c 3e a7 cb 15 bd 2a 71 ae 3e
       -0.20403124 0.27491865 -0.03657117 0.34070712
000140 93 b5 df 3d ec 8c eb 3d 02 f9 6d 3e 53 d6 3a be
       0.109233044 0.11501488 0.2323952 -0.1824582
000150 be 67 17 be 45 47 85 bd 1c ff 18 3e 9f 57 4b be
       -0.14785668 -0.06507734 0.14941067 -0.19857644
000160 de e6 20 be 41 82 1a be fb c6 76 3e b5 98 a3 be
       -0.15713069 -0.1508875 0.24099343 -0.31952444
000170 d2 bc 5e bd 83 2b d8 bd 99 80 cc 3e 63 a4 f8 3e
       -0.05437929 -0.10555174 0.39941862 0.48562917
000180 8e d9 6c be 65 75 c4 3e ab 28 9b be 65 30 eb be
       -0.23129866 0.38370815 -0.30304465 -0.4593536
000190 b9 03 88 bd 0b d4 a3 3d 9d 21 91 bd d4 d8 2d 3d
       -0.06641335 0.07999428 -0.07086489 0.04244311
0001a0 fd 0a 1c 3e d9 37 24 bd 0c f1 d3 bd df 87 f1 be
       0.15238567 -0.040092323 -0.103487104 -0.47173974
0001b0 ea 34 2c 3e a7 6f e5 bd 2a d5 c0 bd 26 df ee bd
       0.1681706 -0.112029366 -0.09415658 -0.11663656
0001c0 bf fe 91 be fd 07 69 bc 90 08 cf bd 49 41 04 be
       -0.28514668 -0.014223096 -0.10109055 -0.1291553
0001d0 cb 1e 4a be 5f 31 05 3e 48 3d 6a 3e 8f fe 69 bd
       -0.19738309 0.13007115 0.2287494 -0.05712753
0001e0 37 9b 45 bd 19 ea ec 3d ce ee 4d 3e bb 8d dc bd
       -0.048243728 0.11568088 0.20110628 -0.107692204
0001f0 e5 49 b0 3d 68 9d 1d be 1a d8 4b be a9 95 b3 bd
       0.08607844 -0.15392077 -0.19906655 -0.0876878
000200 60 e9 9d 3e 03 51 45 be 39 34 7a 3e 64 ba 34 bc
       0.30842113 -0.19269185 0.24433984 -0.011030767
000210 39 1e 06 3e ba c5 2a bd a3 03 95 3d 09 eb 89 3d
       0.13097467 -0.041692473 0.07276084 0.067342825
000220 3d 85 bd 3d 40 5f 11 3e 08 fa f9 3c e3 d2 30 be
       0.09253929 0.14196491 0.030514732 -0.17267947
000230 ad ef b1 bc c7 eb 4a be b2 fb dd bd f9 65 d7 3d
       -0.021720732 -0.19816504 -0.10839023 0.105174966
000240 8c f2 80 bd ef 2d a8 be bb 07 c8 be 00 75 a3 3e
       -0.06296262 -0.32847545 -0.39068398 0.319252
000250 e2 1a 70 be ca 13 73 be 8e fa 6f be 62 75 02 be
       -0.23447755 -0.23738018 -0.23435423 -0.1274009
000260 40 19 26 3e 5c 1e 03 3e c9 06 9e be 66 9d ad be
       0.1622057 0.1280455 -0.30864552 -0.33909148
000270 c4 d5 85 3d e3 ae 28 be c9 9c 14 be e6 64 c3 be
       0.06534913 -0.16472964 -0.14512934 -0.38162917
000280 db bd 37 be 02 55 7d 3e a7 8a 5b 3e 12 86 85 be
       -0.17943518 0.24739459 0.2143961 -0.2607885
000290 72 d7 8d bd 1b f6 cc bd 1c bb 15 bd 97 18 1a 3d
       -0.069258586 -0.100078784 -0.036555395 0.037621107
0002a0 de ef 0e be 31 dd 88 be b8 61 d1 bd 50 61 f2 3c
       -0.1395869 -0.26731256 -0.102237165 0.029587418
0002b0 70 7b ac 3c 2d 7c aa 3e 1e 2b b6 3e 59 51 32 3c
       0.021054953 0.33297864 0.3557977 0.010883653
0002c0 d7 bb 20 3e 22 c3 1f be 89 db 9e 3d 7d 19 80 3d
       0.15696655 -0.15601781 0.07756717 0.062548615
0002d0 dc 55 44 be ee ef 92 bd e0 8c 91 be 3c c9 9d 3d
       -0.19173378 -0.07174669 -0.28427792 0.07704398
0002e0 8c bc c1 be e6 39 bf be 48 4a 80 bd a0 65 9b be
       -0.37839162 -0.3734886 -0.06264168 -0.3035097
0002f0 c5 a4 b8 be 5d 1e f8 bd 21 1a 2c be 3d ae 6b 3c
       -0.3606321 -0.12115166 -0.16806842 0.014384803
000300 f1 4d 28 bd 42 cf 5e be 84 89 34 bd f8 d3 ae be
       -0.041089956 -0.2175875 -0.044076458 -0.34146094
000310 7a f3 e1 3d 16 e3 ae be 88 6a dd bd 0a 38 10 be
       0.110327676 -0.34157628 -0.10811335 -0.14083877
000320 b4 ca 37 3d ca 4e 29 3e 6b 95 53 bd f4 b1 6c 3d
       0.044871047 0.16533962 -0.051656168 0.057786897
000330 df 4d 22 3e 97 b5 e3 3d aa 05 b5 3d 20 df 2b 3e
       0.15850018 0.1111862 0.08838971 0.16784334
000340 da c1 62 3c 19 6a 8d be 94 a4 80 3d cf 8d 3a 3d
       0.013840163 -0.2762001 0.06281391 0.045545395
000350 c3 58 71 3e 86 08 ba 3d c4 1c c3 3e aa cd 80 3e
       0.23569016 0.09083657 0.38107884 0.2515691
000360 0a 98 4e 3e 87 1e 4f bc 91 f3 5a 3e 44 15 a1 bd
       0.20175186 -0.012641556 0.21381976 -0.07865384
000370 23 b8 c0 bc 70 89 0a be 70 f2 06 bf 21 2b 2b 3e
       -0.023525303 -0.13528991 -0.5271368 0.16715671
000380 e3 f4 46 bd 7c b1 38 be e4 f0 1a be da a7 2c bd
       -0.048573386 -0.18036455 -0.15130955 -0.042152263
000390 de 3b 8e bd 27 15 65 be 19 9f 2a 3e ca 2d 32 3e
       -0.069450125 -0.2237135 0.16662253 0.1740028
0003a0 21 b9 cf bc 95 11 68 3d 91 12 a4 be 91 8c 8a 3e
       -0.025356831 0.056657393 -0.32045415 0.2706037
0003b0 51 37 e8 3c d0 b6 b3 bb 7b ba 8e 3e 89 ad 73 3e
       0.02834669 -0.0054844394 0.27876648 0.23796667
0003c0 24 6d 33 be 54 be 6b 3c 76 ac 2e bd b4 b2 a4 be
       -0.17522103 0.0143886395 -0.04264494 -0.3216759
0003d0 67 4e 77 3e 40 d4 46 be 24 db 9d 3d f9 4b 4a 3e
       0.24151002 -0.19416904 0.077078134 0.19755544
0003e0 2b 67 94 bd 09 91 2e 3e d3 f3 fa be f8 19 1f 3d
       -0.0724624 0.17047514 -0.49014148 0.038843125
0003f0 c4 23 c3 3d a2 15 22 3b 06 fc 93 3d 7f a1 65 3e
       0.09528306 0.0024732132 0.07225804 0.22424887

gcn.conv2.bias f4 [64]
000000 03 27 ab 3c 81 7e 27 3e 14 2e 63 bc cf 6a 64 bd
       0.020892626 0.16356851 -0.013865966 -0.055765923
000010 e8 d6 44 3d 07 c5 44 bd ca db 27 3e d5 6f f7 bc
       0.048056513 -0.048039462 0.16392437 -0.030204693
000020 5c 72 12 bd 14 d3 44 3d d9 1f 47 bd 9c cd 1f bd
       -0.035753593 0.048052862 -0.048614357 -0.039014444
000030 a4 48 42 bd f1 d9 13 3c 0b 75 53 bd 64 19 16 3d
       -0.047432557 0.009024129 -0.051625293 0.036645308
000040 2f 0f ac 3d f0 08 0a 3e 03 6d 99 bc bd ed 04 bc
       0.084013335 0.13479972 -0.018728739 -0.008113322
000050 6a ab 53 bd f4 f3 e6 3d 5c 11 e5 3d 8a e2 20 3c
       -0.051677145 0.11276999 0.11184952 0.009819636
000060 43 34 7c bc 2e e2 a2 bd a3 35 64 bb b7 01 df 3d
       -0.01539332 -0.079532966 -0.003482201 0.10888999
000070 1b 81 19 bd d5 7d dd bc 11 32 4b bd 06 1f a6 bc
       -0.03747664 -0.02703754 -0.049608294 -0.020278465
000080 f2 20 03 3e 4c 86 b6 bc b5 51 91 3d 55 82 44 bd
       0.12805536 -0.022280835 0.070956625 -0.047975857
000090 ba 78 33 3e 52 a6 51 3d 96 0f 13 bc 4f b2 09 bd
       0.17526522 0.051184006 -0.008975884 -0.033617314
0000a0 d9 62 60 3b da 19 83 3b d1 e4 ef 3d f9 ea cc bd
       0.0034238605 0.0040008845 0.11713565 -0.10005755
0000b0 e7 7d e7 bd 18 f9 63 3d d6 95 86 bc 5a f2 2d bb
       -0.11303311 0.055657476 -0.01642887 -0.0026542158
0000c0 f5 2c 91 3d 24 ba 4e bd b0 0a b2 bd 7d 75 e0 3c
       0.07088653 -0.050470486 -0.08693445 0.027399773
0000d0 81 95 0c 3e 24 03 28 3e f4 34 65 bd 7f 05 0f bd
       0.13728906 0.16407448 -0.055958703 -0.03491735
0000e0 eb 6b 66 bb ca e7 65 bd a0 0e b3 bc ee f1 ae 3c
       -0.003515954 -0.056129254 -0.02185756 0.021355595
0000f0 3c ee 08 bc da 78 bc bd 52 2a aa bc 65 b1 cb bd
       -0.008357581 -0.09202738 -0.020772133 -0.09945945

gcn.conv2.lin.weight f4 [64, 64]
000000 89 ca a8 3d 5b ef 8f 3e 0f 70 56 be 6b da 17 3e
       0.082417555 0.281123 -0.20941184 0.14829414
000010 08 a9 bc 3c 01 9c 60 bd 66 42 13 be c9 1c 8b bc
       0.02302982 -0.054836277 -0.14380798 -0.0169815
000020 78 08 e1 bd 8c a3 82 3e b3 6c 39 be 80 b9 b8 3d
       -0.109879434 0.255154 -0.18107872 0.09019756
000030 92 cd 65 3d 67 4f ce 3d ae 83 87 be b9 46 40 bd
       0.05610425 0.100737385 -0.2646765 -0.046942446
000040 3b f3 68 3d aa 1f e7 bd 78 cb 53 bc 13 e3 8b 3d
       0.056872588 -0.11285336 -0.012926929 0.0683042
000050 dc 5d 78 3e d8 59 e8 3d 5f 26 00 bd 29 fe a1 3c
       0.24254555 0.11345261 -0.031286594 0.019774513
000060 04 8b 60 be 98 4a 90 be fc 86 85 3d 41 31 08 be
       -0.2192803 -0.2818191 0.06519887 -0.13300039
000070 3d 55 85 39 f3 9a 88 3e 1a af f3 bc c4 08 f3 bb
       0.00025431244 0.26680717 -0.02974658 -0.0074168164
000080 45 59 9f be 5c 16 c7 be 86 3c 81 bd ac c8 a7 be
       -0.31122795 -0.38884246 -0.06310372 -0.32770288
000090 65 68 d6 3d 0e 41 5f 3d 2f 37 d4 3d 37 b3 2c 3e
       0.104691304 0.0545054 0.10362088 0.1686524
0000a0 8b 96 f3 bc 26 97 9a 3e f4 23 21 be 28 d6 20 bc
       -0.02973487 0.30193442 -0.15736371 -0.009816684
0000b0 15 a1 04 3e f8 4a fd bc 8c de cd 3d 8f b5 44 3e
       0.12952073 -0.030919537 0.10052213 0.19209884
0000c0 5b bb df be c7 74 f2 bb 83 f1 ec bd 71 24 e8 bc
       -0.43697628 -0.007399175 -0.11569502 -0.02833769
0000d0 d6 4c 89 be fb 7a 2c 3d 74 82 e4 3a fa 98 c2 be
       -0.26816434 0.04210947 0.0017433898 -0.38007337
0000e0 96 97 16 be 9c 31 05 bc ff 4e 0d 3c f8 33 09 be
       -0.14706263 -0.008129504 0.008624791 -0.13398731
0000f0 34 7e 25 be 05 df 9f 3e a8 98 25 be 1f de 3d be
       -0.16161424 0.31224838 -0.16171515 -0.18541764
000100 cd ff 7b bd ca df e8 bd c9 2e 9f bd 06 c9 5b 3e
       -0.061523248 -0.113708094 -0.077725954 0.21463403
000110 da a7 5e 3e c0 16 c4 bb e0 90 36 3e db 52 32 bb
       0.21743718 -0.0059841573 0.17828703 -0.002721003
000120 20 bb 7f 3c b6 04 83 bd e5 b9 44 3d 9a 2c d5 bd
       0.015608579 -0.06397383 0.048028845 -0.10408898
000130 ca 4a 91 3d 44 ed 80 3e b2 18 60 3d da 84 59 3e
       0.07094343 0.2518102 0.05471105 0.21242085
000140 76 5e b6 3e 4c ec 8e bb f1 e4 ba 3d 5d 59 2e 3e
       0.35618943 -0.004361665 0.09125698 0.17026277
000150 2e 45 4a bd 9c 2d 43 3e 44 1d a7 3e 9b 6a fe 3d
       -0.04938238 0.19060367 0.32639515 0.12422677
000160 8e 37 10 be 64 47 ab 3e 3b 31 79 3e ea 6b 42 be
       -0.14083692 0.33452904 0.24335186 -0.18986478
000170 8f 53 3e 3d 17 53 94 bd 8c 4f b1 3d 69 88 94 3e
       0.046466406 -0.07242411 0.086577505 0.29010323
000180 d1 79 9a bd 38 f4 6f 3e 45 a3 d7 bd 60 5e a8 bd
       -0.07542766 0.23433006 -0.10529188 -0.082211256
000190 b1 8e 4e 3e 1b d0 83 be 11 93 38 be 92 fb 06 3c
       0.2017162 -0.2574471 -0.18024851 0.00823869
0001a0 29 2c 09 be 64 ff 27 3d 34 3a 30 bd 93 38 16 be
       -0.13395752 0.041015044 -0.043024257 -0.14670019
0001b0 93 c8 4e 3c 49 c8 23 3e 37 ba d9 bc de 7d 33 3e
       0.012621063 0.15994371 -0.026578052 0.17528483
0001c0 2d f9 dc bc 80 9c 49 3c 90 11 3a 3e 89 f0 1b 3e
       -0.026974285 0.012305379 0.18170762 0.15228476
0001d0 e8 48 9d 3d 9c c1 46 3e 3a c9 83 bb 51 15 65 3e
       0.076799214 0.19409794 -0.004021791 0.22371413
0001e0 bf 6e 9b 3d 45 3e 16 3e c5 70 89 3d e9 da f9 bd
       0.075894825 0.14672191 0.06710962 -0.12199957
0001f0 f9 81 85 be f0 f5 47 3d ab 19 9b 3e 49 98 a3 bd
       -0.26075724 0.04881853 0.3029302 -0.079880305
000200 60 60 5c be 5b 70 a3 be 87 7d 91 3c 1b e1 6c be
       -0.21521139 -0.31921658 0.017760051 -0.23132746
000210 ca dd 0c 3e 92 8a df 3d 34 a0 cb bd a7 d1 84 bd
       0.13756481 0.10915102 -0.09942666 -0.064853005
000220 a7 3d 36 3e 93 2f 1c 3b 43 f7 f9 3d 23 4b d9 3d
       0.17796956 0.0023832067 0.122053646 0.10610034
000230 ee ae 36 3d ac 27 57 3d 51 74 89 3e fb 1f 66 3e
       0.04460042 0.05252807 0.26846555 0.22473137
000240 28 62 33 3e 06 a6 91 3e 5c d2 27 bd 23 24 3b be
       0.17517912 0.28446978 -0.0409721 -0.18275504
000250 c6 75 43 bd db f5 df 3e 67 f6 2b be c4 a2 11 3e
       -0.04771974 0.4374226 -0.16793214 0.14222246
000260 09 18 28 be 82 7c 33 3e 94 6d 38 be 6d 68 10 3e
       -0.16415419 0.17527965 -0.1801055 0.14102335
000270 54 b4 76 3e ab 5d 15 bd cf 76 fd 3b 28 66 75 be
       0.24092227 -0.03646628 0.0077351104 -0.23964751
000280 cb 32 4b be 7c 04 91 be 65 6a dc 3d 27 a3 fa 3d
       -0.19843595 -0.28323734 0.10762481 0.1223815
000290 de 2a 68 3e 12 09 59 3c e1 36 09 3d c7 09 8e 3e
       0.22672603 0.013246791 0.033499602 0.27741835
0002a0 61 71 68 be a2 c5 c5 bd a5 18 04 3e 73 99 6d bd
       -0.226995 -0.09656836 0.12900026 -0.05800767
0002b0 6d 0d 8a 3c 25 df 06 3d 5d 79 62 3b e2 2c 89 bd
       0.016852105 0.03292765 0.0034557201 -0.06698014
0002c0 a4 a2 5c be fb 55 33 3d 1f 2d 3a 3e c8 d0 8a bd
       -0.21546417 0.04378317 0.18181275 -0.06778103
0002d0 69 05 af 3c 1f 18 84 3d 13 b5 a0 3e 97 12 18 bd
       0.021364884 0.06449913 0.3138815 -0.037127104
0002e0 e3 66 a4 3d d8 9f 6d 3b 38 71 c2 3d bd 33 b5 3e
       0.080274366 0.0036258604 0.09494251 0.35391036
0002f0 ee e5 58 3d d6 e1 14 be e9 2d eb bd ce 76 90 3e
       0.052953653 -0.14539275 -0.11483366 0.2821564
000300 18 0a 1e bd c8 b2 e8 3d 4a a1 50 be 7b 52 03 bd
       -0.038583845 0.11362225 -0.20374027 -0.03206108
000310 5f 37 69 be da 27 a0 3e 3c 2c 00 be 3a c8 c6 3d
       -0.22775029 0.31280404 -0.12516874 0.09706159
000320 b4 6b 92 be 00 ee 1b be e9 a2 d0 bd 79 3f 9f be
       -0.28597796 -0.15227509 -0.10187323 -0.31103113
000330 84 1e 09 be 9e b1 29 be f7 ef 00 3e 0d e2 b5 3d
       -0.13390547 -0.16571662 0.1259154 0.088810064
000340 92 c7 8e bd c5 b7 87 3d ef c7 68 3e 76 9f 3b be
       -0.06971659 0.06626848 0.22732519 -0.18322548
000350 65 38 39 be f7 89 e2 3c b2 bf 42 be 11 f5 a7 bd
       -0.18087919 0.027653677 -0.19018438 -0.082010396
000360 d8 fe 71 bd 68 fc 79 3e 2f e4 12 be 9e ca ee bd
       -0.05908093 0.24412692 -0.14344858 -0.1165974
000370 ca 42 95 3d b6 9c 8f 3e de c3 bc 3d 23 30 80 3c
       0.0728813 0.28049248 0.09217046 0.015647953
000380 53 de 20 be 42 11 a6 3d 1c 9d 37 bd 82 0d 7b bd
       -0.1570981 0.081087604 -0.044827566 -0.06129218
000390 7f 26 14 be 1e 65 2e bd 35 51 25 be 49 5c 2e be
       -0.1446781 -0.0425769 -0.1614426 -0.17027391
0003a0 d1 c3 ca bd 6e 40 b2 bd 77 94 86 bd 52 99 46 3e
       -0.0990063 -0.08703695 -0.06571286 0.19394425
0003b0 cb cc 26 3e cc 85 c1 3d 21 f5 e0 bd 08 3a 3e be
       0.1628906 0.09449348 -0.10984255 -0.18576825
0003c0 64 f4 ee bd 53 14 a1 be ef 5b 4f be dc 1a 34 3b
       -0.116677076 -0.3146082 -0.20249914 0.002748183
0003d0 f6 6d 3f be 09 06 9a be c2 fd 65 be 66 43 9f bd
       -0.1869429 -0.3008273 -0.22460082 -0.07776527
0003e0 93 6e ca 3d 49 52 20 be 19 28 3d be e2 48 9c bd
       0.098843716 -0.1565639 -0.18472327 -0.07631089
0003f0 1e 18 0c bd 93 af 11 3d d4 31 0d be 85 58 6e be
       -0.034202687 0.03556783 -0.13788539 -0.23275955

gru.weight_ih_l0 f4 [192, 64]
000000 6c 42 44 3d ed ba 7a be f4 d3 c8 be 45 cc 68 be
       0.047914907 -0.24485369 -0.39224207 -0.22734173
000010 33 b1 9d be 5d de ae be 57 94 13 be 04 30 2b 3c
       -0.30799255 -0.34154025 -0.14412056 0.01044846
000020 90 a1 36 bd 51 c1 97 be 73 63 a6 3c 73 00 f1 3d
       -0.04458767 -0.29639676 0.020311093 0.11767664
000030 e8 ae 55 bd a1 df bc be a6 3d c2 be 77 3a 8f be
       -0.052168757 -0.36889365 -0.3793766 -0.27974293
000040 7d 9a d8 be 20 f3 b4 be 6f e5 1e 3d 8e 72 16 bd
       -0.42305365 -0.3534174 0.038793024 -0.03673034
000050 59 85 65 be 3d 6b d5 bd f0 41 f1 be 12 60 1c bd
       -0.2241415 -0.10420845 -0.4712062 -0.038177557
000060 9e b0 40 3d 67 6c a8 be e6 86 99 3d fb 50 a7 be
       0.047043435 -0.32895204 0.07496433 -0.3267897
000070 78 f7 4a bd 9a 5d 00 be 97 e6 2d 3d 74 9c b9 3d
       -0.04955241 -0.12535706 0.042456236 0.09063044
000080 26 4a 71 be 78 2f c3 be b0 61 b5 bd e6 37 98 be
       -0.23563442 -0.38122153 -0.08856523 -0.29730147
000090 55 f0 63 be 30 04 9a be 86 e3 c9 3d aa df ed 3d
       -0.22259648 -0.3008132 0.0985785 0.11614926
0000a0 5c 2e a0 bd 80 9f 81 3d a1 68 ed 3d 24 39 92 be
       -0.07821342 0.0632925 0.11592222 -0.2855922
0000b0 04 02 f5 be e6 f9 41 be c7 17 91 bd 2b 7f 19 bf
       -0.478531 -0.18942985 -0.07084613 -0.5995967
0000c0 c9 4f 23 be 71 79 c4 bc c1 e6 86 bd f5 64 eb be
       -0.15948404 -0.023983689 -0.065869816 -0.45975462
0000d0 d1 27 8d 3d 23 64 1e be 2d 2f 05 bf c9 d7 4d be
       0.0689236 -0.15467887 -0.5202511 -0.20101847
0000e0 b9 67 60 be 05 ad 01 3e 93 f4 48 3e 7b 00 ae be
       -0.21914567 0.12663658 0.19624548 -0.33984742
0000f0 26 4d 1a be 03 75 f8 3d 1c 9e 82 bd ae 13 47 3c
       -0.15068492 0.12131693 -0.06377813 0.012150688
000100 d3 2e 9f bb 10 75 d2 be bf b5 4e be b3 8e 8c bd
       -0.004857877 -0.41104937 -0.20186518 -0.06863155
000110 65 d7 4a be 98 50 80 bd 55 38 8f be 4b 5a 0b be
       -0.19808729 -0.06265372 -0.27972665 -0.13608663
000120 32 ea 91 be eb c1 3e be 91 6b ef 3d af b8 ff 3d
       -0.2849899 -0.18628661 0.116904385 0.124863975
000130 ee ab f0 bc 35 ea 9b be 13 4f 8e be 96 f5 bd bd
       -0.029378857 -0.30452123 -0.27794704 -0.092753574
000140 96 56 17 be 34 17 74 be 34 2f d1 3d ab 53 08 3d
       -0.14779124 -0.23836976 0.102140814 0.033282917
000150 f4 ff f9 bd f4 02 5e bd 19 43 99 be 29 ed 13 be
       -0.12207022 -0.054202035 -0.29934004 -0.14445938
000160 80 fb bf bd f7 78 23 bd 60 73 0c 3d 1b a1 50 be
       -0.09374142 -0.039910283 0.034289718 -0.20373957
000170 9e 00 b3 3b 9b ce 20 bd c4 9f e9 bd 74 cf 25 3d
       0.00546272 -0.039259534 -0.11407426 0.040481046
000180 c1 7a 88 be 53 67 de bd af bc 38 be 4b b8 3f 3d
       -0.26656154 -0.10859551 -0.18040727 0.046806615
000190 be 79 10 be 56 3b 3e be 85 af 0e 3e b5 0c ec 3d
       -0.14108941 -0.18577322 0.13934143 0.11525861
0001a0 20 78 38 bd 17 14 82 be 47 cf 4b be 03 de e3 bd
       -0.045036435 -0.25405952 -0.19903289 -0.1112633
0001b0 2d 92 1d be 0c 7c 5b be 2d ea 66 bd 07 03 82 be
       -0.15387793 -0.21434039 -0.05637567 -0.25392935
0001c0 ea ef bb bd 41 b6 3c 3d 7e bd 44 bd 01 49 2f bd
       -0.09176619 0.04607225 -0.048032276 -0.04279423
0001d0 1b bf 45 be bb c0 33 be 02 ab 0a bd 58 f8 d9 3b
       -0.19311182 -0.1755399 -0.033854492 0.0066519193
0001e0 22 47 e2 bd e3 a4 9e 3d 23 ae 2d be c6 5b 48 be
       -0.11048724 0.077462934 -0.16960959 -0.19566259
0001f0 24 93 17 be 06 5d b8 3d 07 5b 8e 3d 99 da e4 bd
       -0.14802223 0.09002118 0.06950956 -0.11174507
000200 02 9e 16 be 87 77 bb bd ab cb 84 be 90 5b e3 3d
       -0.14708713 -0.091536574 -0.25936636 0.111014485
000210 fa 93 72 be 76 59 77 be 3a 17 0d 3c 55 d0 37 3d
       -0.23689261 -0.2415522 0.008611495 0.044876415
000220 c8 b8 83 bd 7b 73 92 3d 3c 29 e4 bc 3e bb b4 3d
       -0.064317286 0.071509324 -0.027851693 0.08824776
000230 42 dd 3d be f9 e9 b0 be 06 06 81 be 38 30 8a be
       -0.18541434 -0.34553507 -0.25199908 -0.26989913
000240 24 47 cf bd 1f ee 89 be 22 3c 05 bc d8 99 e5 3d
       -0.10120991 -0.26939484 -0.008132013 0.11210984
000250 fd fe b9 bd f0 3c b8 bd 60 99 01 be 78 83 9e 3a
       -0.09081838 -0.08995998 -0.12656164 0.0012093624
000260 46 98 72 3d 9e ad 80 be b4 bc 6b bd 04 d7 ef bd
       0.05922725 -0.2513246 -0.05755301 -0.11710933
000270 d6 78 8f 3c fc ad b4 bd 5a cf 92 bd 62 1d 3e be
       0.017513674 -0.088222474 -0.071684554 -0.18565896
000280 a5 4c 31 bd b1 46 52 be e5 e1 dd bd e0 55 79 be
       -0.043285985 -0.20534779 -0.108341016 -0.24349165
000290 cf aa 2c be e5 d3 f1 bd 8c b6 5e 3c 21 51 96 3d
       -0.16862033 -0.11807994 0.013593327 0.07339693
0002a0 15 22 4c be dc 03 66 3d 5e 4b 8d 3d 24 6b 34 be
       -0.19934876 0.056156024 0.06899141 -0.17618996
0002b0 6b 57 0d be de 6c 74 be 3b 67 aa 3d 04 f2 54 be
       -0.13802879 -0.23869655 0.08320471 -0.20795447
0002c0 b2 99 01 be 9c bb 74 bd 30 da e4 3d df cf 47 be
       -0.12656286 -0.05974923 0.111744285 -0.1951289
0002d0 9a db fb bd 37 48 59 be 70 bd 82 be 26 00 7c bb
       -0.12297745 -0.21218954 -0.25535154 -0.0038452237
0002e0 0f 3a a0 be c4 c7 9c 3c a7 40 8b 3d 07 5c 86 be
       -0.31294295 0.019138224 0.06799441 -0.26242086
0002f0 13 71 ba bd 0f a3 fd 3d ce 0a 00 3e ba 44 bc bd
       -0.091035984 0.123846166 0.12504122 -0.09192796
000300 4e 80 8d bd e5 a3 c3 bd a0 30 27 be 8e cf eb bd
       -0.06909238 -0.09552745 -0.16327143 -0.11514197
000310 7f f0 ff bc 18 5b e3 bd 05 ad 29 be 76 ea 55 bd
       -0.031242607 -0.11101359 -0.16569908 -0.052225552
000320 75 52 88 bd a1 09 95 bd 7c 3f cf bd 76 bb a3 bd
       -0.066563524 -0.07277227 -0.101195306 -0.0799474
000330 33 fe 48 be 6d 07 2c be 97 72 5f be 96 00 8a bd
       -0.1962822 -0.16799708 -0.21821056 -0.06738393
000340 de e8 a5 bd a5 ca ed bd 70 3e da bd c2 8a 84 bc
       -0.081010565 -0.11610917 -0.1065644 -0.016179446
000350 c3 ed ad be 8a ea 0c be 80 6b ac bd 34 6b 52 be
       -0.3397046 -0.13761345 -0.084189415 -0.20548707
000360 a5 d1 f9 bd c3 6d e4 bd 2a c3 97 be 78 47 0d be
       -0.1219819 -0.11153748 -0.29641086 -0.13796794
000370 d8 9e 19 be b1 66 bd bd 9e dc 47 3b 26 cf 84 be
       -0.15002 -0.092481025 0.0030496488 -0.25939292
000380 50 1e 89 bc 87 9a 39 be b7 aa fc bd 4f c6 75 be
       -0.016738087 -0.18125354 -0.12337249 -0.2400143
000390 fb 6d 8a be e7 71 75 be 33 5e c7 bd b3 a9 50 3d
       -0.27037033 -0.23969232 -0.09734764 0.050943088
0003a0 0c b2 e8 bd 3d 16 22 be 40 1e 9a be f8 ab 06 be
       -0.11362085 -0.15828796 -0.30101204 -0.13151538
0003b0 ca 0f 0e be b9 a9 e2 bd ce b0 32 3c 71 72 a4 bd
       -0.1387321 -0.11067528 0.010906411 -0.080296405
0003c0 1c e0 46 be 95 ae 62 bd db 0f 4b 3d e6 af 24 be
       -0.19421428 -0.055342276 0.049575668 -0.16082725
0003d0 a1 91 51 be ce 5c 90 bd 42 82 d4 bd 3b b7 e7 3b
       -0.2046571 -0.07048951 -0.10376407 0.0070714033
0003e0 f0 38 c9 bd ca cf fb bd 53 d7 b0 be 2d a7 11 be
       -0.09825313 -0.12295492 -0.3453928 -0.14223929
0003f0 fa 8c 6b bd 82 66 47 3c e3 6a c4 bd 73 f6 3f be
       -0.057507493 0.012170436 -0.095906995 -0.18746357

gru.weight_hh_l0 f4 [192, 64]
000000 50 1e 44 3e 6c 52 07 3e 1b 0d 3d 3d 86 f9 40 bd
       0.19152188 0.13215035 0.046155076 -0.047112964
000010 a5 f4 63 bb 39 d4 15 bc 3d 18 db bd 2e 77 3b 3e
       -0.003478327 -0.009144836 -0.106979825 0.18307182
000020 0a db 2f 3d 11 4d 03 3e 0c 4a 56 bd 09 c3 9e bb
       0.0429335 0.12822367 -0.05231671 -0.0048450273
000030 18 71 91 3d a3 00 48 3e 8c a7 d0 3d 7b 6c 25 be
       0.07101649 0.19531493 0.10188207 -0.16154663
000040 bc f8 d7 bc c6 80 de bd c1 e8 c4 3d 71 fa 10 3e
       -0.026363723 -0.10864405 0.09614707 0.14158036
000050 ab 20 62 bd 08 d5 36 3e 48 25 fd bb f0 0f 0d 3e
       -0.055206936 0.17854702 -0.0077253915 0.13775611
000060 0e 81 74 be ec 72 3b be ab 82 80 3e 0e 53 b6 bd
       -0.23877355 -0.18305558 0.25099692 -0.0890256
000070 0a b1 42 3d bc 82 4a 3e 47 b9 a0 3b 5f 87 2d be
       0.04753212 0.19776434 0.0049048993 -0.16946171
000080 c1 75 26 be 86 9f 13 3e e5 44 2e 3e d8 6a c9 3d
       -0.16255857 0.14416322 0.17018469 0.09834832
000090 64 d2 12 3e ce 9c 13 be ca 75 fc 3d 41 de c9 be
       0.1433807 -0.14415285 0.12327154 -0.3942738
0000a0 c3 61 24 3e 72 2e a1 bd 8b 61 83 3e b3 e8 98 3e
       0.16052918 -0.07870187 0.25660357 0.29865035
0000b0 1b 80 61 3b 98 b3 f8 bd 9a 61 0f be c7 81 ab 3d
       0.0034408632 -0.1214363 -0.14002076 0.083743624
0000c0 2e f4 0a bd 8b 67 07 3e fd 9a a7 3d 58 73 80 3d
       -0.033924274 0.13223092 0.081838585 0.06272
0000d0 44 8f 90 be 6b 88 65 3e a5 ca a7 bd 2e fd 06 be
       -0.28234303 0.2241532 -0.08192948 -0.13182518
0000e0 a5 12 90 bd 77 ef 93 be 52 f0 e8 bd d8 05 c9 bd
       -0.07034806 -0.28893635 -0.113739625 -0.09815568
0000f0 47 80 a4 be 67 75 a4 be e5 ec ed bd 75 db 07 3e
       -0.32129118 -0.3212082 -0.1161745 0.1326731
000100 c9 a2 9f 3d 1f 51 9d bd c8 b3 b5 bc c0 a6 3f bd
       0.07794721 -0.07681488 -0.022180453 -0.046789885
000110 19 e6 08 3e 70 4f f9 bd d3 27 30 be bf ee 26 3e
       0.13369025 -0.121733546 -0.17202692 0.16302012
000120 80 7b 84 3a e6 ae 0f 3e 29 af d6 3d e8 9c ff bd
       0.0010107607 0.14031562 0.10482628 -0.12481099
000130 92 a3 04 bd 94 9a e4 bc 4a 84 37 bd 8f 49 1f 3c
       -0.032382555 -0.02790574 -0.044803895 0.009722128
000140 5f 75 35 3d 28 a5 bc bd 1e f4 d3 bc 1e 0c 55 bd
       0.044301387 -0.092111886 -0.02587324 -0.05201351
000150 37 08 bb 3d c5 05 13 3e 1f bc ba 3d c8 cc d9 3d
       0.09132426 0.1435767 0.091179125 0.10634762
000160 ed 1c 06 be 62 38 37 be 85 8d 61 3e cd 4e ee bd
       -0.13096972 -0.17892602 0.22026642 -0.11636124
000170 9d 9c c6 3d 65 28 2c 3e 4a 7c 1c be 2e 54 65 bd
       0.0969784 0.16812284 -0.15281788 -0.055988483
000180 de d6 94 bd 07 50 16 bd bc c4 07 3e 08 6d a9 bd
       -0.07267545 -0.036697414 0.13258642 -0.08272749
000190 dd 0d 8b 3d e7 af 1c bc 01 15 c6 bd a2 48 a9 3c
       0.067897536 -0.009563423 -0.09671975 0.020664517
0001a0 55 59 e4 3d 7f 8c 6a 3d fb 40 33 3e c9 44 07 3b
       0.11149851 0.057262894 0.17505257 0.0020640364
0001b0 6e 69 20 3e dd a7 02 be 08 50 c1 bd c7 48 52 bc
       0.15665218 -0.12759347 -0.09439093 -0.012834734
0001c0 18 dc 93 bd 7b 1d df 3d d9 a8 d9 3d f5 3b 0c 3e
       -0.07219714 0.10894295 0.10627908 0.13694747
0001d0 c8 94 55 be 60 75 9c 3d c1 a3 29 bd fe 10 bb 3d
       -0.20857537 0.07639575 -0.041415934 0.091341004
0001e0 20 df aa 3c a4 25 16 be 4a b4 eb 3c 4b 90 d3 bd
       0.020858347 -0.14662796 0.028772492 -0.10330256
0001f0 e5 ad b8 bd 62 b8 f2 bd 88 d4 1a be fb f2 d2 bd
       -0.09017543 -0.118515745 -0.15120137 -0.10300251
000200 6d 34 d9 bc 6c 1a 15 3c f6 a4 c3 bd 10 d3 dc 3c
       -0.026514256 0.009100538 -0.09552948 0.026956111
000210 96 de 1d 3e 31 56 04 bd c5 f8 2b be af 9a 93 bd
       0.15416941 -0.03230876 -0.16794117 -0.07207238
000220 c2 e9 a3 3d d7 dc b6 bd cc b7 89 3c 50 f0 04 3d
       0.0800357 -0.089288406 0.016811274 0.032455742
000230 58 b1 f9 3d 1a 8e 7b 3d 3a d9 c4 bd 6e b2 05 3c
       0.12192029 0.061414815 -0.09611745 0.008160217
000240 09 e3 1f 3e 83 ee e2 3d b6 4d 1a 3e c5 29 92 bd
       0.15613951 0.11080649 0.15068707 -0.07136873
000250 f6 02 9d 3d 3c 92 18 3e 8f 16 80 3d de a8 87 3d
       0.076665804 0.14899534 0.06254303 0.06624006
000260 e4 bf c5 bc 6d 15 57 be 89 9f 7f 3c ce db 0e be
       -0.024139352 -0.21004267 0.015602001 -0.13951036
000270 38 b4 cf bd e2 46 91 3d 62 d6 12 be 47 9a 68 3d
       -0.10141796 0.07093598 -0.14339593 0.056787755
000280 b4 c1 bd bd 34 84 21 3c 7e d8 3e 3e 60 e5 db 3c
       -0.092654616 0.00985818 0.18637273 0.026842773
000290 f5 9f 35 3d 21 7b 12 bd 1f 2b d3 3c 11 4b 4e be
       0.044342 -0.035761956 0.025777398 -0.20145823
0002a0 08 fc 12 3e 23 a1 fa bd 9e 1c 38 bd 62 15 27 3d
       0.14353955 -0.12237766 -0.044949166 0.040791877
0002b0 66 67 78 3c dc 6b 87 bd 6e c6 91 bd d7 b0 58 bc
       0.015161371 -0.066123694 -0.071179256 -0.013225756
0002c0 6d 77 bc 3d c7 30 f3 3c ba 2d 97 3d 9b a5 00 bd
       0.09202466 0.029686345 0.073817685 -0.031407934
0002d0 b8 cd 56 bd 61 ce 9f 3d 1d bc d7 bd 72 a0 91 bc
       -0.052442282 0.078030355 -0.10533927 -0.017776702
0002e0 a7 de e4 bd 06 bb 37 be 34 aa e5 bc d7 27 98 3c
       -0.1117528 -0.17942438 -0.02803526 0.018573685
0002f0 9b 90 0f be c2 a3 da bd 1b 39 91 bd 36 72 a2 bc
       -0.14020006 -0.106757656 -0.0709097 -0.01982985
000300 fe d0 51 3d 40 53 81 bd 17 03 fe bc 45 f8 7c bd
       0.0512247 -0.06314707 -0.031007333 -0.061760206
000310 1b e9 15 3d b7 bc eb 3d a1 2a f7 bd c1 b6 2f be
       0.03659926 0.11510604 -0.12068678 -0.17159559
000320 b8 3b b9 bd 2e f4 0c 3d 5d 35 1d bd 72 1e a2 bd
       -0.090445936 0.034412555 -0.03838097 -0.07915963
000330 7e 05 27 be dd 70 4f 3e 9c 3b 00 3a 46 76 29 bd
       -0.16310689 0.20257898 0.0004891695 -0.04137256
000340 d5 11 cc bc c0 23 f2 bc 62 53 15 be de d4 01 3d
       -0.024910847 -0.029558063 -0.1458259 0.031697147
000350 b1 15 89 3d 99 d5 a1 3d 8c be 05 3d fb fc 3b 3e
       0.066935904 0.07902069 0.032652423 0.18358223
000360 7a a3 2f be fa 6f 31 be 9c e2 e1 3c b0 ed 85 3e
       -0.17152205 -0.17327872 0.027573876 0.26157904
000370 30 a6 c9 3d a1 2f 10 3e 2a 42 76 bd f0 8e 06 3d
       0.09846151 0.14080669 -0.060121693 0.03285116
000380 7f 2b db bd 81 84 07 be ad 55 77 3d 66 43 e7 3d
       -0.107016556 -0.1323414 0.06038444 0.11292152
000390 35 70 10 be 20 f0 2b be 60 36 91 3d 28 4f 99 bd
       -0.14105304 -0.16790819 0.07090449 -0.07485801
0003a0 5f e7 dd bc 0d d2 d2 bd 3e 1b 6f 3d 17 1c 87 3e
       -0.027087865 -0.1029397 0.05837559 0.26388618
0003b0 7e ca 73 3e 46 db e9 bd fe fa 35 3d 61 99 46 bd
       0.23807713 -0.11418776 0.044428818 -0.048486117
0003c0 70 4a 33 3e 2b bf e5 bc 25 83 8f 3d 2e 6f 43 bb
       0.17508864 -0.028045258 0.07007436 -0.0029820907
0003d0 4a 2a 0d bd 03 16 62 3e 4b dd 03 3d 04 c4 48 3e
       -0.034464158 0.2207871 0.032193463 0.19606024
0003e0 04 a6 e6 3b 05 24 cc 3c 24 e8 a6 3d b9 39 35 3d
       0.0070388336 0.02491952 0.08149746 0.0442445
0003f0 9c e1 45 be 09 af 60 be a7 b4 0b be e0 f1 b4 3d
       -0.19324344 -0.2194177 -0.13643132 0.088351965

gru.bias_ih_l0 f4 [192]
000000 0d ba 7c be fd 52 07 be 06 f3 92 be 4c 4f 1f be
       -0.24680348 -0.13215251 -0.28701037 -0.15557593
000010 04 05 7f be 3c ef e7 bd 89 0d 02 bd 41 0b 8b be
       -0.24904257 -0.11324927 -0.03175119 -0.27157024
000020 a8 8a e8 bd e5 89 46 be fe 0c 0d 3e e2 7f 67 be
       -0.113545716 -0.1938854 0.13774487 -0.22607377
000030 6b 20 f0 bd f9 f2 80 be af 67 63 3e 93 ba 8c bd
       -0.11724933 -0.25185373 0.22207521 -0.06871524
000040 21 8a af ba a1 b6 95 be 36 e4 26 be e7 88 06 be
       -0.0013392606 -0.29240897 -0.16297993 -0.13138162
000050 fa 67 ea bd fe 34 37 be e1 e2 a6 bd 29 45 9a be
       -0.11445613 -0.17891309 -0.081487425 -0.3013089
000060 ae 1c 31 be 9e d1 40 be 34 4c 87 bd a6 9a 77 be
       -0.17296097 -0.18829963 -0.066063315 -0.24180087
000070 ad 99 28 bd c7 14 07 be 0b de db bd 90 4c 14 be
       -0.04116218 -0.1319152 -0.10735711 -0.14482331
000080 16 20 a4 bc ca b1 ba bd 34 6a 67 be 75 17 e8 bd
       -0.020034831 -0.09115942 -0.22599107 -0.11332599
000090 7d db 7e be bb b3 c4 bd ec 00 32 be 11 2f 88 bd
       -0.24888416 -0.09604593 -0.17383164 -0.06649602
0000a0 38 a5 09 be c0 fc 7e 39 60 fa 4a be af 08 28 be
       -0.13441932 0.00024317484 -0.19822073 -0.16409563
0000b0 5b 1e 2f be f7 b3 73 be 1c fd 58 bc 63 98 e9 bd
       -0.17101423 -0.2379912 -0.01324394 -0.114060186
0000c0 70 10 37 be 07 e2 06 3b 40 e2 03 be ad c5 63 be
       -0.17877364 0.00205815 -0.12879276 -0.22243376
0000d0 92 47 08 be a5 da 17 be 57 d9 09 be 5d 4a 1c be
       -0.13308552 -0.148295 -0.13461815 -0.15262742
0000e0 41 74 14 bd e2 3b 53 bd e5 65 8b bd 0f c3 8a bc
       -0.03624368 -0.05157078 -0.06806544 -0.016938714
0000f0 e4 54 97 bd 44 ff 20 be 7e 04 65 bd 29 88 6e be
       -0.073892385 -0.15722376 -0.055912487 -0.23294128
000100 34 1f a2 3d 0d fd 17 bc 7e 53 23 bd ae 0b 54 3e
       0.07916108 -0.009276641 -0.039874546 0.2070758
000110 33 61 64 3b a8 85 8c bd c9 bc ab 3d 2b 4c 1a bd
       0.0034847974 -0.068614304 0.08385617 -0.037670296
000120 dc 57 6c 3e 96 1f da bd cd 83 f6 bd 6f 73 32 3d
       0.2308039 -0.10650556 -0.12036858 0.043567117
000130 1c fe 97 3e e2 27 b8 3c c4 df 7d be 09 c8 0d 3e
       0.29686058 0.022479955 -0.24792391 0.13845839
000140 a0 1e b1 3d be e3 33 3e 49 f8 03 bd a2 2c 00 bd
       0.086484194 0.17567345 -0.032219205 -0.031292565
000150 b4 3c 54 3e 45 d0 17 3e c5 d5 ff 3d df 03 cc 3d
       0.20726281 0.14825542 0.12491945 0.09961676
000160 9a 50 e3 3b 4e 66 ea 3d ea c9 e5 bd 19 2a 09 be
       0.0069370987 0.11445294 -0.11220153 -0.13394965
000170 2e 36 b7 bd 1d 6a 88 bd 39 14 15 3d 3e 9a 4b 3e
       -0.08945881 -0.066608645 0.03639624 0.19883057
000180 eb 91 ae bd f7 48 83 3e 3e e3 10 3e 4e d7 92 3e
       -0.085239254 0.25641605 0.14149186 0.2867989
000190 04 ec 33 3e 42 4d 68 bd 47 85 be bc 2b 1d a4 3d
       0.17570502 -0.056714304 -0.023256911 0.08013376
0001a0 76 2c b5 3d 9a 92 52 3d cd d4 2d 3e df 16 7d 3d
       0.08846371 0.05140934 0.16975708 0.06178939
0001b0 4f 09 20 3e 8b 6f 80 3c 72 f0 d1 3c 86 20 d2 bd
       0.15628551 0.015678188 0.025627349 -0.102601096
0001c0 4a 0c 6b bd 50 21 ca 3d a7 43 37 3e 25 c0 f0 3d
       -0.057384767 0.09869635 0.17896901 0.11755399
0001d0 12 c4 0e 3d a8 1e 49 3b f9 b1 2a 3d e8 ec aa 3d
       0.034854956 0.0030688439 0.041673634 0.083459675
0001e0 58 de e7 3d 55 44 f4 bc c4 5a 91 bb 66 e5 84 3e
       0.113217056 -0.02981774 -0.004435869 0.25956267
0001f0 a7 76 b5 3d be ba 77 3d 08 99 82 3e 7d d9 fe 3c
       0.08860522 0.060480826 0.2550738 0.031109566
000200 46 d3 12 3d 30 f1 af bd 55 d2 05 3e 2d 9c 0d 3e
       0.035846017 -0.08590925 0.13068517 0.13829108
000210 37 c7 dd 3d 4c da 04 be 19 75 f7 3d 52 f1 cd 3d
       0.10829013 -0.12973899 0.120828815 0.10055794
000220 5e 77 e7 bd 97 00 f9 bd 58 55 a9 3d 47 dc 43 bd
       -0.11302064 -0.12158316 0.08268231 -0.047817495
000230 ee eb c6 3d 7b 84 56 be 36 da a3 bd 76 97 10 be
       0.09712969 -0.20948975 -0.08000605 -0.14120278
000240 be 77 3f bd 14 a5 2b 3e ae 5c cf 3d b1 51 90 3d
       -0.046745054 0.16762191 0.10125099 0.070468314
000250 25 06 33 be b5 2a 17 bd 1c 35 04 3e 17 6f b6 3c
       -0.17482813 -0.036905963 0.12910885 0.022269769
000260 a7 97 a4 bd b3 36 0e be ca 23 b4 3d 59 71 50 be
       -0.08036738 -0.13888054 0.08795889 -0.20355739
000270 fb a4 f0 bd bf 46 0d be e9 98 d1 3c fe 21 ce 3b
       -0.117502175 -0.13796519 0.025585609 0.0062906733
000280 72 75 b9 bc 8f 9e 33 3b f4 99 7c 3d a7 4f ce bc
       -0.02263901 0.002740774 0.06167026 -0.025184466
000290 cc 9b 2e 3e 20 7a a2 3d 42 1a d0 3d 70 2a 46 3e
       0.1705162 0.0793345 0.10161258 0.19352126
0002a0 2e 82 a3 3d 45 23 06 bd d2 a2 29 3d d2 b6 2b bd
       0.07983814 -0.03274848 0.041415043 -0.041922398
0002b0 34 70 31 be 0d 1e d0 bd c6 95 8d bd e3 8d 1c 3e
       -0.17327958 -0.10161982 -0.06913333 0.152885
0002c0 8b 36 11 3e 32 cf aa 3d fd d3 21 be cd 1d 24 3e
       0.14180963 0.083403006 -0.15803523 0.16026993
0002d0 b6 08 ff bd 48 fd 0e 3d 99 1b 42 3e b9 78 57 bd
       -0.12452833 0.034909517 0.1895584 -0.052605364
0002e0 f2 d0 27 3e 6f 6d 41 3e 69 57 5b be 57 f3 05 3e
       0.163883 0.18889402 -0.21420063 0.13081108
0002f0 46 21 56 3e ce b0 23 be 30 b9 55 3e 91 6e db bd
       0.2091113 -0.15985414 0.20871425 -0.10714448

gru.bias_hh_l0 f4 [192]
000000 10 33 8f be 41 3d 3e be 21 78 1c be 3e 44 04 bd
       -0.27968645 -0.18578054 -0.152802 -0.032291643
000010 ed 99 95 be fc ec 9c be 1c 47 13 3c 81 2c 96 be
       -0.29219 -0.30649555 0.008989122 -0.2933083
000020 b2 bc 67 be cb 85 94 be b7 32 00 3d 79 d9 23 be
       -0.22630575 -0.29008326 0.031298365 -0.16000928
000030 6a ed 3a be ed b9 9c be 1c c9 18 3e fe 70 f9 bd
       -0.18254629 -0.306106 0.14920467 -0.12179755
000040 ec 98 17 3c 83 dc 77 be 0c 36 89 be ae f2 b6 39
       0.009252768 -0.24205212 -0.26799047 0.00034894556
000050 d0 e0 20 be f5 a8 ab bd b4 9f 1e be 2e e8 ad be
       -0.15710759 -0.08381835 -0.1549061 -0.33966202
000060 0a 49 5d be 5d 32 65 be ca 8d 2a be 82 31 28 be
       -0.21609893 -0.22382493 -0.1665565 -0.16425136
000070 05 bb 2d be ad 7c 19 be 99 60 bf bd 0a e7 45 bd
       -0.16965874 -0.14988966 -0.093445964 -0.04831604
000080 46 7e 90 bd e8 16 3d be 0f 5f 8c bd b1 d1 8c bd
       -0.07055335 -0.1846577 -0.068540685 -0.06875933
000090 62 75 76 be e6 6f a6 ba 81 0a 53 be cf d7 55 3d
       -0.24068215 -0.0012698143 -0.20609476 0.052207764
0000a0 a3 39 79 be f8 97 c4 3b 71 83 8a be 51 54 59 bd
       -0.24338393 0.0059995614 -0.27053407 -0.053058926
0000b0 f4 b4 e8 bc 51 c5 21 be b6 97 84 bc 3b 27 48 be
       -0.028406598 -0.15797926 -0.016185623 -0.19546215
0000c0 b6 ac 8e be 09 a3 ad 3b 68 c5 e6 bd d8 c6 52 be
       -0.27866143 0.0052989763 -0.11268121 -0.20583665
0000d0 d1 d5 c9 bd fc 9d 3f be 5d ed cf bc 15 58 74 be
       -0.09855235 -0.1871261 -0.025381738 -0.23861726
0000e0 6b f5 56 be 98 53 8e 3d bc 0d 73 be 70 3b dc bd
       -0.20992057 0.06949538 -0.23735708 -0.10753524
0000f0 c0 d0 ac 3c 1a 03 5d be eb d1 a1 bd df 9b 13 bd
       0.021095634 -0.21583214 -0.07901367 -0.036037322
000100 8c 53 6c 3c 1b dc 87 bc d9 23 81 bc 5f 48 98 3d
       0.014424216 -0.016584447 -0.015764164 0.07435679
000110 8f 51 c7 3d 94 b6 94 bc e8 84 5a 3e 33 9e 45 be
       0.09732353 -0.018153466 0.21339762 -0.1929863
000120 fa 5e cb 3e 01 bc 31 bd db fb 87 3d 1c 89 7a bc
       0.397209 -0.043392185 0.066398345 -0.0152914785
000130 a5 bc 9b 3e a0 b7 41 bd dd e5 ba bd 04 74 1e bd
       0.30417362 -0.04729426 -0.09125874 -0.03868486
000140 9a ec c6 3d 0c f4 7f 3e 33 f8 34 bd 20 06 3e 3d
       0.09713097 0.2499544 -0.044182014 0.04639256
000150 8f dc 0f 3d bf de 4e 3e 16 36 35 bd 92 90 e8 3d
       0.03512245 0.20202158 -0.044241033 0.113556996
000160 f5 41 f5 3d 28 2b b4 3d 6a aa 50 3d 37 7c 50 bd
       0.11975471 0.08797294 0.05094377 -0.05089971
000170 0c 24 08 3e 0e 10 fd bd 09 6a 76 3e 28 6f 69 3d
       0.13295001 -0.12356578 0.24063887 0.056990772
000180 ec 85 1e bd 15 6d 80 3e d5 a4 68 3d eb 79 9d 3e
       -0.038701937 0.25083223 0.05679782 0.3075708
000190 66 a3 dc 3d dd 4b 34 3e 93 e0 5d 3d 02 0a 37 3d
       0.10773353 0.17607065 0.05416925 0.04468728
0001a0 2c 84 53 3e 1d 35 3c 3d 1b 31 31 3e 2c be 02 3e
       0.20655888 0.04594909 0.17303888 0.12767857
0001b0 de b7 28 bc 86 d9 2b 3e e4 8e db 3d 04 bd 01 bc
       -0.010297744 0.16782197 0.107206136 -0.0079186
0001c0 c2 7c ba bb 66 05 d7 3d 40 d7 6f 3d a2 1b 23 3e
       -0.005691142 0.104990765 0.058554888 0.1592851
0001d0 0d d3 db bc ef c3 cc bb be ec 28 3e 9a 0e a4 bc
       -0.026834035 -0.006248943 0.1649656 -0.020026494
0001e0 04 cf 9f 3d 04 2c bb 3d 9b 54 04 bd 3e 99 56 3e
       0.07803157 0.09139255 -0.03230725 0.20956895
0001f0 7b 8e 14 3b 50 b7 2b 3e d3 44 a4 3d a4 d8 69 bc
       0.0022667933 0.16769147 0.0802094 -0.014272843
000200 ac 8c 76 3d 58 35 82 3d 13 70 1d bc 8e fe 15 bc
       0.06019275 0.06357831 -0.00960924 -0.009154929
000210 e8 ee 97 bd 2a 08 06 bd 68 ab 03 3e 46 6b 8f bd
       -0.074186146 -0.03272263 0.12858355 -0.07002883
000220 44 aa 42 bd 67 6c 83 bb 6d b8 fd 3d 30 d1 91 bd
       -0.04752566 -0.0040107253 0.12388692 -0.071199775
000230 dd 8f 89 bd 38 67 7e 3c 8c 7a c2 bd 57 3b d4 bd
       -0.06716893 0.015527539 -0.0949603 -0.10362881
000240 f1 91 2e be f3 8a ec 3c e0 a8 bc bc ec 9a 46 3e
       -0.1704786 0.02887485 -0.023029745 0.19395036
000250 7a ee d4 bc 61 7a fc bd 91 80 0d 3e f4 0c b9 bb
       -0.02599262 -0.123280294 0.13818575 -0.005647296
000260 96 82 c4 bd 07 a3 fd bd aa 9a 08 3e 26 f3 31 3c
       -0.0959522 -0.123846106 0.1334025 0.010861194
000270 c4 4f 23 be 5a c9 df bd 44 60 14 3e 8f de dd 3d
       -0.15948397 -0.10927077 0.14489847 0.10833465
000280 20 d9 48 3e e0 25 2a bc 8a 21 c7 3d a5 5d b2 bd
       0.19614077 -0.010385007 0.09723194 -0.087092675
000290 f1 c8 cb 3d 87 90 1a 3d ed f9 c7 3d bc a3 a0 3d
       0.09950436 0.03773549 0.097644664 0.0784373
0002a0 fa 1f 3d 3e 91 e8 2f be b2 8c 82 3d b6 3f a8 3d
       0.1846923 -0.17178561 0.06374492 0.08215277
0002b0 7c 96 0b be 48 34 a9 bd d7 55 b8 bd 35 3e fe 3d
       -0.13631624 -0.08261925 -0.09000748 0.12414209
0002c0 f0 a0 a1 bd e2 65 e7 bd 0d 0f 55 bd a2 a7 b6 bc
       -0.078920245 -0.112987295 -0.052016307 -0.02229673
0002d0 92 74 31 bb f9 89 8c 3d fb a7 aa 3c aa 53 a5 bd
       -0.0027077538 0.06862254 0.020832052 -0.08072598
0002e0 bd ae 10 3e b1 43 50 3e 36 fa e4 bd c2 32 10 3e
       0.14129157 0.20338322 -0.111805364 0.14081863
0002f0 0a ac 03 3e 91 27 82 3d f8 90 8c 3d 47 97 b5 bd
       0.12858596 0.06355203 0.06863588 -0.088667445

heads.gdp.weight f4 [1, 64]
000000 d7 2e 08 be 6e de b4 3d 79 cf 4c be e0 9c 04 be
       -0.13299118 0.088314876 -0.2000102 -0.12950468
000010 be fc 2c 3e cb 9d 26 3e e8 14 a6 3b 48 05 97 bd
       0.16893288 0.1627113 0.00506841 -0.07374054
000020 d8 72 ae bd 30 77 33 3d 32 0d e0 bd 5c c0 70 3d
       -0.085179985 0.043814838 -0.10940017 0.0587772
000030 9e c9 6f bc 9f 95 1a bd 02 6a b9 3d 80 b8 15 3e
       -0.014635472 -0.037740346 0.090534225 0.14621162
000040 57 3e 1f 3e c2 2b fe 3b 84 52 0d be de b5 06 be
       0.15551125 0.007756681 -0.13801008 -0.13155314
000050 fc 64 80 3d 74 a7 49 3d a5 0f c3 bc 10 e1 5e bb
       0.06269261 0.04923196 -0.02381117 -0.003400866
000060 c3 c1 b4 3d 8f c5 61 bd 31 30 bf bd 6c 2d 7a 3d
       0.088260196 -0.055120047 -0.09335364 0.061078474
000070 e7 53 36 3d c1 bf 2e 3d 4e a4 93 3d dc 37 6d 3d
       0.04451361 0.04266334 0.07209073 0.0579146
000080 aa 2c f0 bd 24 5e 2d be d0 1e 0a be 51 0e 08 3e
       -0.11727269 -0.16930443 -0.13488317 0.13286711
000090 9f 52 ec 3d 20 dd e8 bd 2e 53 86 be f5 78 8d bd
       0.11539196 -0.11370301 -0.26235336 -0.06907836
0000a0 62 88 0d 3d fd 6b 47 bd 1f 27 b4 3d 20 17 3a be
       0.034553893 -0.04868697 0.08796524 -0.18172884
0000b0 fb 50 c3 3c 79 b4 97 3d 21 10 a4 3d 89 6f ff bd
       0.023842325 0.07407469 0.08010889 -0.124724455
0000c0 22 9f c9 bd de f3 f4 bd 14 05 ab bc 54 63 27 be
       -0.09844805 -0.119605765 -0.020876445 -0.16346484
0000d0 df 9f bd 3d 07 f2 00 3c 18 05 9f bd 72 33 88 3d
       0.092590086 0.007870204 -0.077646434 0.066504374
0000e0 3f 7b 3f 3d f9 3e 20 be 46 0a b4 3d 52 ac 92 3d
       0.046748396 -0.15649022 0.08791022 0.07161774
0000f0 44 e9 25 be 66 10 04 3e 59 73 e8 3c 45 14 39 bc
       -0.16202265 0.1289688 0.028375315 -0.011296337

heads.cpi.weight f4 [1, 64]
000000 2e 99 93 3c d3 8e 09 3d 25 e9 4a be fc 45 bf bc
       0.018017378 0.033583473 -0.198155 -0.0233488
000010 b4 30 1f 3e fd a3 08 bd d0 c8 56 3d 02 dc c6 3c
       0.15545923 -0.033359516 0.052437603 0.02427483
000020 cc 39 67 be 4a 9e f7 bc 15 35 9d bb 3a de ba bc
       -0.22580642 -0.030226845 -0.0047975876 -0.022811044
000030 d5 a7 2b be 15 21 05 3e 1f 3f 02 3e 4a ec 0f 3e
       -0.16763242 0.13000901 0.12719391 0.14054981
000040 9b 0f c2 3d 9e d3 c1 bc ee 52 e6 bd fc e8 4c be
       0.09475633 -0.023660477 -0.11246286 -0.20010751
000050 94 30 02 3d e1 64 4d 3d 6c 24 c8 bd bf 6c 2f bd
       0.03178461 0.050145034 -0.09772572 -0.042828318
000060 bb f4 3d 3e 8e a8 da bc 11 73 0f 3e 8d 2a a0 3d
       0.18550389 -0.026691701 0.14008738 0.07820616
000070 6c c3 9f 3d 6b c6 30 3d 18 0b ce be d0 92 55 3d
       0.07800946 0.043157976 -0.4024284 0.052141964
000080 39 c0 a9 bc c7 5e f3 3d 70 2b 4e 3d 32 f3 bb bd
       -0.020721542 0.11883312 0.050334394 -0.09177245
000090 bf d2 75 bd c7 f2 5a bd d1 96 61 bd 5f c1 7a 3d
       -0.060015436 -0.053454187 -0.05507547 0.06121957
0000a0 e4 cf 18 be 26 7f 99 3b 79 87 46 3d 83 8f 43 bd
       -0.14923054 0.0046843467 0.04846904 -0.047744285
0000b0 a3 37 54 3e 90 a5 91 bd 89 a2 1d 3c 63 68 fd bd
       0.20724349 -0.07111657 0.009621271 -0.12373426
0000c0 08 ec 98 bd 3f 8d f1 3e ad e5 2e 3e 18 16 79 bd
       -0.074668944 0.47178075 0.17079802 -0.060812086
0000d0 c2 91 13 3d b6 54 02 3d c7 62 a8 3c aa 65 9e 3c
       0.036027677 0.031819068 0.020554913 0.019335587
0000e0 ae 3d fe bc 11 56 89 3d a0 b3 ab 3c 89 25 1d be
       -0.03103527 0.06705869 0.020959675 -0.1534635
0000f0 bb 34 09 be 10 25 09 3e e5 8d 8c bd 4a e8 2e 3d
       -0.13399021 0.13393044 -0.06863002 0.042701997

heads.fx.weight f4 [1, 64]
000000 2f 6e 64 3c 4b 0a 06 be 80 46 f6 3b a9 d5 2c bd
       0.013942285 -0.13089864 0.0075157285 -0.04219595
000010 b6 43 0f be 5e b3 44 3e 2f e7 b9 3b 31 2c d7 bc
       -0.13990673 0.19209048 0.005673311 -0.02626619
000020 1a ba 04 bd bc 83 33 3e 6d c4 71 bd 58 83 ae 3d
       -0.032404043 0.17530721 -0.059025217 0.085211456
000030 7d a9 10 3c 83 b1 21 3e 39 89 aa 3d 28 ee c0 bc
       0.008829472 0.15790372 0.083269544 -0.023551062
000040 90 78 8b bb 10 03 d1 3d 5d db f6 bd 61 52 9a bd
       -0.0042563155 0.10205662 -0.12053559 -0.07535244
000050 94 39 50 3c b5 ee 79 3c f8 5b 8e bd 9d 73 e1 3d
       0.01270904 0.015254666 -0.069511354 0.110083796
000060 4b 93 24 3d 4c 61 a5 bd 29 f7 73 bd 95 fc fd 3d
       0.040179532 -0.080751985 -0.059561882 0.12401692
000070 48 44 33 3e 09 47 d7 bb 10 c5 16 bc 33 9b 39 be
       0.17506516 -0.0065697473 -0.009202257 -0.1812561
000080 6a 48 41 be a9 df b8 bd 56 0c 8b bd fb d9 90 3d
       -0.1887528 -0.09027035 -0.06789462 0.070728265
000090 d0 36 c7 bd c7 b7 04 3d df a9 a8 bd 1b 07 7b be
       -0.097272515 0.032401826 -0.08235525 -0.2451443
0000a0 14 f9 7d 3c 5d 54 c5 bb 05 a6 8b 3c 0c 5d b7 3d
       0.015501279 -0.00602202 0.017046938 0.08953294
0000b0 89 29 36 3e 28 2d 8f 3c a9 69 28 3c fc f8 04 be
       0.17789282 0.017477587 0.010279098 -0.12985605
0000c0 86 48 fd 3d 3a 8a a3 bd 4b 84 a2 3d 59 a9 8e 3d
       0.123673484 -0.07985349 0.07935389 0.06965894
0000d0 50 4b a4 bc 8c 20 59 bd 0e 2f 43 be fa 55 21 bc
       -0.020055443 -0.053009555 -0.19060919 -0.009847159
0000e0 70 f0 90 3d 27 9e 4d bd ab ad 38 3e 65 06 f9 bd
       0.0707711 -0.050199654 0.18034999 -0.12159423
0000f0 34 13 ed bd c2 df 67 3d 30 c3 e9 bd fb 1f 8d 3d
       -0.11575928 0.056609876 -0.11414182 0.068908654

heads.trade.weight f4 [1, 64]
000000 81 6b ce 3d 44 9e fb 3d 24 19 d1 bd 96 38 29 bd
       0.100790985 0.12286046 -0.10209873 -0.04131373
000010 b2 27 62 3d a7 15 3b bd 57 28 26 3c 0e 8c fa bb
       0.055213638 -0.045674946 0.010141454 -0.0076460904
000020 e1 ae 81 3d 85 10 15 be d9 d2 2e be 06 33 2b 3c
       0.06332184 -0.14557083 -0.1707262 0.010449177
000030 45 ea 71 bd 9e bf 95 3d 4e 92 da 3e 41 c5 ed 3d
       -0.059061307 0.07311939 0.42689747 0.11609889
000040 39 87 10 3e fa 9d dd bd 36 57 02 3e a6 9d 95 bd
       0.14114083 -0.10821147 0.12728581 -0.0730546
000050 5d 0c d1 3d 3a 2e 8d 3d c0 24 30 bd 1c 93 04 be
       0.10207436 0.06893583 -0.043003798 -0.12946743
000060 fe eb 8e bd 48 c7 f0 3c 86 5e 0b be dc 86 c2 bb
       -0.06978606 0.0293919 -0.13610277 -0.0059364866
000070 6a 2b 9a bd cf cf ef 3d 90 d6 2c 3d 39 91 80 bb
       -0.07527812 0.11709558 0.04219681 -0.003923562
000080 c5 58 94 bd a4 d1 3d 3c e9 d0 36 bb 5f ee c8 bd
       -0.07243494 0.011585627 -0.0027895516 -0.09811091
000090 bf d3 c0 3d 59 45 16 be 47 c5 0f be cd d2 1d bd
       0.09415387 -0.14674892 -0.14040099 -0.038531113
0000a0 39 c5 4b be 74 57 85 3e d6 f3 22 bd e5 51 29 bd
       -0.19899453 0.26043284 -0.03978332 -0.041337866
0000b0 1d 40 a4 3c 04 7b 8d 3d 2f 1d 85 3d 31 90 74 bb
       0.020050103 0.06908229 0.06499707 -0.003731739
0000c0 48 96 05 be 96 67 e6 bd 12 a5 b8 ba 61 b1 1e be
       -0.13045609 -0.11250226 -0.0014087281 -0.15497352
0000d0 ee 96 f7 3c 24 14 3d be b7 1e 06 be b4 4d 08 bd
       0.030223336 -0.18464714 -0.13097654 -0.03327723
0000e0 df b1 8d bd 8d e8 3d bd 7a 3a 7c 3d 8d ae 23 be
       -0.06918692 -0.046364356 0.061579205 -0.15984555
0000f0 97 44 89 bc 07 61 2b bd 07 e9 58 bd a8 e2 88 3d
       -0.016756339 -0.04184058 -0.052956607 0.06683856
