trade_graph.pt (torch, 2693 bytes, 2 tensors)

x f4 [5, 8]
000000 d8 31 13 bf 98 c8 3d bc 14 42 a6 3e c8 0b 0f 3f
       -0.5749793 -0.01158347 0.3247229 0.5587735
000010 f3 f4 d4 3e ab e6 6f be 00 00 00 00 04 d9 82 3f
       0.4159313 -0.23427837 0.0 1.0222478
000020 4e 00 9f 3f 3f 79 af bf 92 fd 79 bf 8e 7a bc 3c
       1.2421968 -1.3708876 -0.9765254 0.023007657
000030 6f 59 e3 3e 52 b6 cc 3f 00 00 00 00 3e 8c be bd
       0.4440417 1.599314 0.0 -0.09304093
000040 db 40 5a 3f c8 55 05 be 26 53 fe be 2c a8 c1 bf
       0.8525521 -0.13021004 -0.49672812 -1.5129447
000050 73 53 0d 3f 79 8e 06 bf 00 00 00 00 71 eb 7f 3f
       0.5520546 -0.52561146 0.0 0.9996863
000060 57 08 8e bf 90 7d 82 3d f3 63 de be ff 7d 94 3f
       -1.1096295 0.063716054 -0.4343563 1.1600951
000070 d4 78 e4 bf 9e 8f 84 bf 00 00 00 00 d7 9b 41 bf
       -1.7849374 -1.0356328 0.0 -0.7562842
000080 1d fe d1 be b0 77 b9 3f ff 9b ca 3f 1c 6d 6a be
       -0.41014186 1.4489651 1.5828856 -0.22893184
000090 09 ee be 3e 19 ec 48 3e 00 00 00 00 01 18 96 bf
       0.3729098 0.19621314 0.0 -1.1726075

edge_weight f4 [20]
000000 cd cc cc 3e 9a 99 19 3f 9a 99 19 3e 9a 99 99 3e
       0.4 0.6 0.15 0.3
000010 33 33 b3 3e 00 00 80 3f cd cc 4c 3e 00 00 40 3f
       0.35 1.0 0.2 0.75
000020 cd cc 0c 3f 66 66 66 3f 66 66 e6 3e cd cc 4c 3f
       0.55 0.9 0.45 0.8
000030 33 33 33 3e 66 66 66 3e 00 00 00 3f cd cc cc 3e
       0.175 0.225 0.5 0.4
000040 66 66 a6 3e 33 33 33 3f 9a 99 59 3f 9a 99 d9 3e
       0.325 0.7 0.85 0.425
